Layer name,IFMAP Height,IFMAP Width,Filter Height,Filter Width,Channels,Num Filter,Strides,
Conv2d-1,32,32,3,3,3,64,1,
Conv2d-2,32,32,1,1,64,128,1,
Conv2d-3,32,32,3,3,128,32,1,
Conv2d-4,32,32,1,1,96,128,1,
Conv2d-5,32,32,3,3,128,32,1,
Conv2d-6,32,32,1,1,128,128,1,
Conv2d-7,32,32,3,3,128,32,1,
Conv2d-8,32,32,1,1,160,128,1,
Conv2d-9,32,32,3,3,128,32,1,
Conv2d-10,32,32,1,1,192,128,1,
Conv2d-11,32,32,3,3,128,32,1,
Conv2d-12,32,32,1,1,224,128,1,
Conv2d-13,32,32,3,3,128,32,1,
Conv2d-14,32,32,1,1,256,128,1,
Conv2d-15,16,16,1,1,128,128,1,
Conv2d-16,16,16,3,3,128,32,1,
Conv2d-17,16,16,1,1,160,128,1,
Conv2d-18,16,16,3,3,128,32,1,
Conv2d-19,16,16,1,1,192,128,1,
Conv2d-20,16,16,3,3,128,32,1,
Conv2d-21,16,16,1,1,224,128,1,
Conv2d-22,16,16,3,3,128,32,1,
Conv2d-23,16,16,1,1,256,128,1,
Conv2d-24,16,16,3,3,128,32,1,
Conv2d-25,16,16,1,1,288,128,1,
Conv2d-26,16,16,3,3,128,32,1,
Conv2d-27,16,16,1,1,320,128,1,
Conv2d-28,16,16,3,3,128,32,1,
Conv2d-29,16,16,1,1,352,128,1,
Conv2d-30,16,16,3,3,128,32,1,
Conv2d-31,16,16,1,1,384,128,1,
Conv2d-32,16,16,3,3,128,32,1,
Conv2d-33,16,16,1,1,416,128,1,
Conv2d-34,16,16,3,3,128,32,1,
Conv2d-35,16,16,1,1,448,128,1,
Conv2d-36,16,16,3,3,128,32,1,
Conv2d-37,16,16,1,1,480,128,1,
Conv2d-38,16,16,3,3,128,32,1,
Conv2d-39,16,16,1,1,512,256,1,
Conv2d-40,8,8,1,1,256,128,1,
Conv2d-41,8,8,3,3,128,32,1,
Conv2d-42,8,8,1,1,288,128,1,
Conv2d-43,8,8,3,3,128,32,1,
Conv2d-44,8,8,1,1,320,128,1,
Conv2d-45,8,8,3,3,128,32,1,
Conv2d-46,8,8,1,1,352,128,1,
Conv2d-47,8,8,3,3,128,32,1,
Conv2d-48,8,8,1,1,384,128,1,
Conv2d-49,8,8,3,3,128,32,1,
Conv2d-50,8,8,1,1,416,128,1,
Conv2d-51,8,8,3,3,128,32,1,
Conv2d-52,8,8,1,1,448,128,1,
Conv2d-53,8,8,3,3,128,32,1,
Conv2d-54,8,8,1,1,480,128,1,
Conv2d-55,8,8,3,3,128,32,1,
Conv2d-56,8,8,1,1,512,128,1,
Conv2d-57,8,8,3,3,128,32,1,
Conv2d-58,8,8,1,1,544,128,1,
Conv2d-59,8,8,3,3,128,32,1,
Conv2d-60,8,8,1,1,576,128,1,
Conv2d-61,8,8,3,3,128,32,1,
Conv2d-62,8,8,1,1,608,128,1,
Conv2d-63,8,8,3,3,128,32,1,
Conv2d-64,8,8,1,1,640,128,1,
Conv2d-65,8,8,3,3,128,32,1,
Conv2d-66,8,8,1,1,672,128,1,
Conv2d-67,8,8,3,3,128,32,1,
Conv2d-68,8,8,1,1,704,128,1,
Conv2d-69,8,8,3,3,128,32,1,
Conv2d-70,8,8,1,1,736,128,1,
Conv2d-71,8,8,3,3,128,32,1,
Conv2d-72,8,8,1,1,768,128,1,
Conv2d-73,8,8,3,3,128,32,1,
Conv2d-74,8,8,1,1,800,128,1,
Conv2d-75,8,8,3,3,128,32,1,
Conv2d-76,8,8,1,1,832,128,1,
Conv2d-77,8,8,3,3,128,32,1,
Conv2d-78,8,8,1,1,864,128,1,
Conv2d-79,8,8,3,3,128,32,1,
Conv2d-80,8,8,1,1,896,128,1,
Conv2d-81,8,8,3,3,128,32,1,
Conv2d-82,8,8,1,1,928,128,1,
Conv2d-83,8,8,3,3,128,32,1,
Conv2d-84,8,8,1,1,960,128,1,
Conv2d-85,8,8,3,3,128,32,1,
Conv2d-86,8,8,1,1,992,128,1,
Conv2d-87,8,8,3,3,128,32,1,
Conv2d-88,8,8,1,1,1024,128,1,
Conv2d-89,8,8,3,3,128,32,1,
Conv2d-90,8,8,1,1,1056,128,1,
Conv2d-91,8,8,3,3,128,32,1,
Conv2d-92,8,8,1,1,1088,128,1,
Conv2d-93,8,8,3,3,128,32,1,
Conv2d-94,8,8,1,1,1120,128,1,
Conv2d-95,8,8,3,3,128,32,1,
Conv2d-96,8,8,1,1,1152,128,1,
Conv2d-97,8,8,3,3,128,32,1,
Conv2d-98,8,8,1,1,1184,128,1,
Conv2d-99,8,8,3,3,128,32,1,
Conv2d-100,8,8,1,1,1216,128,1,
Conv2d-101,8,8,3,3,128,32,1,
Conv2d-102,8,8,1,1,1248,128,1,
Conv2d-103,8,8,3,3,128,32,1,
Conv2d-104,8,8,1,1,1280,128,1,
Conv2d-105,8,8,3,3,128,32,1,
Conv2d-106,8,8,1,1,1312,128,1,
Conv2d-107,8,8,3,3,128,32,1,
Conv2d-108,8,8,1,1,1344,128,1,
Conv2d-109,8,8,3,3,128,32,1,
Conv2d-110,8,8,1,1,1376,128,1,
Conv2d-111,8,8,3,3,128,32,1,
Conv2d-112,8,8,1,1,1408,128,1,
Conv2d-113,8,8,3,3,128,32,1,
Conv2d-114,8,8,1,1,1440,128,1,
Conv2d-115,8,8,3,3,128,32,1,
Conv2d-116,8,8,1,1,1472,128,1,
Conv2d-117,8,8,3,3,128,32,1,
Conv2d-118,8,8,1,1,1504,128,1,
Conv2d-119,8,8,3,3,128,32,1,
Conv2d-120,8,8,1,1,1536,128,1,
Conv2d-121,8,8,3,3,128,32,1,
Conv2d-122,8,8,1,1,1568,128,1,
Conv2d-123,8,8,3,3,128,32,1,
Conv2d-124,8,8,1,1,1600,128,1,
Conv2d-125,8,8,3,3,128,32,1,
Conv2d-126,8,8,1,1,1632,128,1,
Conv2d-127,8,8,3,3,128,32,1,
Conv2d-128,8,8,1,1,1664,128,1,
Conv2d-129,8,8,3,3,128,32,1,
Conv2d-130,8,8,1,1,1696,128,1,
Conv2d-131,8,8,3,3,128,32,1,
Conv2d-132,8,8,1,1,1728,128,1,
Conv2d-133,8,8,3,3,128,32,1,
Conv2d-134,8,8,1,1,1760,128,1,
Conv2d-135,8,8,3,3,128,32,1,
Conv2d-136,8,8,1,1,1792,896,1,
Conv2d-137,4,4,1,1,896,128,1,
Conv2d-138,4,4,3,3,128,32,1,
Conv2d-139,4,4,1,1,928,128,1,
Conv2d-140,4,4,3,3,128,32,1,
Conv2d-141,4,4,1,1,960,128,1,
Conv2d-142,4,4,3,3,128,32,1,
Conv2d-143,4,4,1,1,992,128,1,
Conv2d-144,4,4,3,3,128,32,1,
Conv2d-145,4,4,1,1,1024,128,1,
Conv2d-146,4,4,3,3,128,32,1,
Conv2d-147,4,4,1,1,1056,128,1,
Conv2d-148,4,4,3,3,128,32,1,
Conv2d-149,4,4,1,1,1088,128,1,
Conv2d-150,4,4,3,3,128,32,1,
Conv2d-151,4,4,1,1,1120,128,1,
Conv2d-152,4,4,3,3,128,32,1,
Conv2d-153,4,4,1,1,1152,128,1,
Conv2d-154,4,4,3,3,128,32,1,
Conv2d-155,4,4,1,1,1184,128,1,
Conv2d-156,4,4,3,3,128,32,1,
Conv2d-157,4,4,1,1,1216,128,1,
Conv2d-158,4,4,3,3,128,32,1,
Conv2d-159,4,4,1,1,1248,128,1,
Conv2d-160,4,4,3,3,128,32,1,
Conv2d-161,4,4,1,1,1280,128,1,
Conv2d-162,4,4,3,3,128,32,1,
Conv2d-163,4,4,1,1,1312,128,1,
Conv2d-164,4,4,3,3,128,32,1,
Conv2d-165,4,4,1,1,1344,128,1,
Conv2d-166,4,4,3,3,128,32,1,
Conv2d-167,4,4,1,1,1376,128,1,
Conv2d-168,4,4,3,3,128,32,1,
Conv2d-169,4,4,1,1,1408,128,1,
Conv2d-170,4,4,3,3,128,32,1,
Conv2d-171,4,4,1,1,1440,128,1,
Conv2d-172,4,4,3,3,128,32,1,
Conv2d-173,4,4,1,1,1472,128,1,
Conv2d-174,4,4,3,3,128,32,1,
Conv2d-175,4,4,1,1,1504,128,1,
Conv2d-176,4,4,3,3,128,32,1,
Conv2d-177,4,4,1,1,1536,128,1,
Conv2d-178,4,4,3,3,128,32,1,
Conv2d-179,4,4,1,1,1568,128,1,
Conv2d-180,4,4,3,3,128,32,1,
Conv2d-181,4,4,1,1,1600,128,1,
Conv2d-182,4,4,3,3,128,32,1,
Conv2d-183,4,4,1,1,1632,128,1,
Conv2d-184,4,4,3,3,128,32,1,
Conv2d-185,4,4,1,1,1664,128,1,
Conv2d-186,4,4,3,3,128,32,1,
Conv2d-187,4,4,1,1,1696,128,1,
Conv2d-188,4,4,3,3,128,32,1,
Conv2d-189,4,4,1,1,1728,128,1,
Conv2d-190,4,4,3,3,128,32,1,
Conv2d-191,4,4,1,1,1760,128,1,
Conv2d-192,4,4,3,3,128,32,1,
Conv2d-193,4,4,1,1,1792,128,1,
Conv2d-194,4,4,3,3,128,32,1,
Conv2d-195,4,4,1,1,1824,128,1,
Conv2d-196,4,4,3,3,128,32,1,
Conv2d-197,4,4,1,1,1856,128,1,
Conv2d-198,4,4,3,3,128,32,1,
Conv2d-199,4,4,1,1,1888,128,1,
Conv2d-200,4,4,3,3,128,32,1,
Linear-201,1,1,1,1,1920,10,1,
